…
0: INFO    25-01-30 17:16:23.715402 - 0:00:06 - Using Mu-parametrized model
0: INFO    25-01-30 17:16:23.723899 - 0:00:06 - Model is built !
0: INFO    25-01-30 17:16:23.723982 - 0:00:06 - Model summary:
0: INFO    25-01-30 17:16:23.724014 - 0:00:06 - LMTransformer(
                                                  (rope_embeddings): RotaryEmbedding()
                                                  (layers): ModuleList(
                                                    (0-7): 8 x TransformerBlock(
                                                      (attention): Attention(
                                                        (wq): Linear(in_features=512, out_features=512, bias=False)
                                                        (wk): Linear(in_features=512, out_features=512, bias=False)
                                                        (wv): Linear(in_features=512, out_features=512, bias=False)
                                                        (wo): Linear(in_features=512, out_features=512, bias=False)
                                                      )
                                                      (feed_forward): FeedForward(
                                                        (w1): Linear(in_features=512, out_features=1536, bias=False)
                                                        (w3): Linear(in_features=512, out_features=1536, bias=False)
                                                        (w2): Linear(in_features=1536, out_features=512, bias=False)
                                                      )
                                                      (attention_norm): RMSNorm()
                                                      (ffn_norm): RMSNorm()
                                                    )
                                                  )
                                                  (tok_embeddings): Embedding(128256, 512)
                                                  (norm): RMSNorm()
                                                  (output): Linear(in_features=512, out_features=128256, bias=False)
                                                )
0: INFO    25-01-30 17:16:24.704184 - 0:00:07 - Model size: 158,605,824 total parameters
0: INFO    25-01-30 17:16:24.704803 - 0:00:07 - GPU capacity: NVIDIA H100 80GB HBM3 (0) with 79.11GiB memory
0: INFO    25-01-30 17:16:24.707876 - 0:00:07 - GPU memory usage: NVIDIA H100 80GB HBM3 (0): 79.10931396484375 GiB capacity, 0.931640625 GiB peak, 1.1776623741346335% peak
…
0: INFO    25-01-31 08:12:41.304342 - 0:00:06 - Using Mu-parametrized model
0: INFO    25-01-31 08:12:41.312948 - 0:00:06 - Model is built !
0: INFO    25-01-31 08:12:41.313032 - 0:00:06 - Model summary:
0: INFO    25-01-31 08:12:41.313062 - 0:00:06 - LMTransformer(
                                                  (rope_embeddings): RotaryEmbedding()
                                                  (layers): ModuleList(
                                                    (0-7): 8 x TransformerBlock(
                                                      (attention): Attention(
                                                        (wq): Linear(in_features=512, out_features=512, bias=False)
                                                        (wk): Linear(in_features=512, out_features=512, bias=False)
                                                        (wv): Linear(in_features=512, out_features=512, bias=False)
                                                        (wo): Linear(in_features=512, out_features=512, bias=False)
                                                      )
                                                      (feed_forward): FeedForward(
                                                        (w1): Linear(in_features=512, out_features=1280, bias=False)
                                                        (w3): Linear(in_features=512, out_features=1280, bias=False)
                                                        (w2): Linear(in_features=1280, out_features=512, bias=False)
                                                      )
                                                      (attention_norm): RMSNorm()
                                                      (ffn_norm): RMSNorm()
                                                    )
                                                  )
                                                  (tok_embeddings): Embedding(128256, 512)
                                                  (norm): RMSNorm()
                                                  (output): Linear(in_features=512, out_features=128256, bias=False)
                                                )
0: INFO    25-01-31 08:12:42.322761 - 0:00:07 - Model size: 155,460,096 total parameters
0: INFO    25-01-31 08:12:42.323318 - 0:00:07 - GPU capacity: NVIDIA H100 80GB HBM3 (0) with 79.11GiB memory
0: INFO    25-01-31 08:12:42.326607 - 0:00:07 - GPU memory usage: NVIDIA H100 80GB HBM3 (0): 79.10931396484375 GiB capacity, 0.912109375 GiB peak, 1.15297343547353% peak
…
